…
  WEIGHT_DECAY_BIAS: 0.0001
  WEIGHT_DECAY_NORM: 0.0
TEST:
  AUG:
    ENABLED: False
    FLIP: True
    MAX_SIZE: 4000
    MIN_SIZES: (400, 500, 600, 700, 800, 900, 1000, 1100, 1200)
  DETECTIONS_PER_IMAGE: 100
  EVAL_PERIOD: 0
  EXPECTED_RESULTS: []
  KEYPOINT_OKS_SIGMAS: []
  PRECISE_BN:
    ENABLED: False
    NUM_ITER: 200
VERSION: 2
VIS_PERIOD: 0
[09/29 15:02:30] detectron2 INFO: Full config saved to checkpoints/MRCN-V2-39-3x/config.yaml
[09/29 15:02:30] d2.utils.env INFO: Using a generated random seed 30156753
[09/29 15:02:49] d2.engine.defaults INFO: Model:
GeneralizedRCNN(
  (backbone): FPN(
    (fpn_lateral2): Conv2d(256, 256, kernel_size=(1, 1), stride=(1, 1))
    (fpn_output2): Conv2d(256, 256, kernel_size=(3, 3), stride=(1, 1), padding=(1, 1))
    (fpn_lateral3): Conv2d(512, 256, kernel_size=(1, 1), stride=(1, 1))
    (fpn_output3): Conv2d(256, 256, kernel_size=(3, 3), stride=(1, 1), padding=(1, 1))
    (fpn_lateral4): Conv2d(768, 256, kernel_size=(1, 1), stride=(1, 1))
    (fpn_output4): Conv2d(256, 256, kernel_size=(3, 3), stride=(1, 1), padding=(1, 1))
    (fpn_lateral5): Conv2d(1024, 256, kernel_size=(1, 1), stride=(1, 1))
    (fpn_output5): Conv2d(256, 256, kernel_size=(3, 3), stride=(1, 1), padding=(1, 1))
    (top_block): LastLevelMaxPool()
    (bottom_up): VoVNet(
      (stem): Sequential(
        (stem_1/conv): Conv2d(9, 64, kernel_size=(3, 3), stride=(2, 2), padding=(1, 1), bias=False)
        (stem_1/norm): FrozenBatchNorm2d(num_features=64, eps=1e-05)
        (stem_1/relu): ReLU(inplace=True)
        (stem_2/conv): Conv2d(64, 64, kernel_size=(3, 3), stride=(1, 1), padding=(1, 1), bias=False)
        (stem_2/norm): FrozenBatchNorm2d(num_features=64, eps=1e-05)
        (stem_2/relu): ReLU(inplace=True)
        (stem_3/conv): Conv2d(64, 128, kernel_size=(3, 3), stride=(2, 2), padding=(1, 1), bias=False)
        (stem_3/norm): FrozenBatchNorm2d(num_features=128, eps=1e-05)
        (stem_3/relu): ReLU(inplace=True)
      )
      (stage2): _OSA_stage(
        (OSA2_1): _OSA_module(
          (layers): ModuleList(
            (0): Sequential(
              (OSA2_1_0/conv): Conv2d(128, 128, kernel_size=(3, 3), stride=(1, 1), padding=(1, 1), bias=False)
              (OSA2_1_0/norm): FrozenBatchNorm2d(num_features=128, eps=1e-05)
              (OSA2_1_0/relu): ReLU(inplace=True)
            )
            (1): Sequential(
              (OSA2_1_1/conv): Conv2d(128, 128, kernel_size=(3, 3), stride=(1, 1), padding=(1, 1), bias=False)
              (OSA2_1_1/norm): FrozenBatchNorm2d(num_features=128, eps=1e-05)
              (OSA2_1_1/relu): ReLU(inplace=True)
            )
            (2): Sequential(
              (OSA2_1_2/conv): Conv2d(128, 128, kernel_size=(3, 3), stride=(1, 1), padding=(1, 1), bias=False)
              (OSA2_1_2/norm): FrozenBatchNorm2d(num_features=128, eps=1e-05)
              (OSA2_1_2/relu): ReLU(inplace=True)
            )
            (3): Sequential(
              (OSA2_1_3/conv): Conv2d(128, 128, kernel_size=(3, 3), stride=(1, 1), padding=(1, 1), bias=False)
              (OSA2_1_3/norm): FrozenBatchNorm2d(num_features=128, eps=1e-05)
              (OSA2_1_3/relu): ReLU(inplace=True)
            )
            (4): Sequential(
              (OSA2_1_4/conv): Conv2d(128, 128, kernel_size=(3, 3), stride=(1, 1), padding=(1, 1), bias=False)
              (OSA2_1_4/norm): FrozenBatchNorm2d(num_features=128, eps=1e-05)
              (OSA2_1_4/relu): ReLU(inplace=True)
            )
          )
          (concat): Sequential(
            (OSA2_1_concat/conv): Conv2d(768, 256, kernel_size=(1, 1), stride=(1, 1), bias=False)
            (OSA2_1_concat/norm): FrozenBatchNorm2d(num_features=256, eps=1e-05)
            (OSA2_1_concat/relu): ReLU(inplace=True)
          )
          (ese): eSEModule(
            (avg_pool): AdaptiveAvgPool2d(output_size=1)
            (fc): Conv2d(256, 256, kernel_size=(1, 1), stride=(1, 1))
            (hsigmoid): Hsigmoid()
          )
        )
      )
      (stage3): _OSA_stage(
        (Pooling): MaxPool2d(kernel_size=3, stride=2, padding=0, dilation=1, ceil_mode=True)
        (OSA3_1): _OSA_module(
          (layers): ModuleList(
            (0): Sequential(
              (OSA3_1_0/conv): Conv2d(256, 160, kernel_size=(3, 3), stride=(1, 1), padding=(1, 1), bias=False)
              (OSA3_1_0/norm): FrozenBatchNorm2d(num_features=160, eps=1e-05)
              (OSA3_1_0/relu): ReLU(inplace=True)
            )
            (1): Sequential(
              (OSA3_1_1/conv): Conv2d(160, 160, kernel_size=(3, 3), stride=(1, 1), padding=(1, 1), bias=False)
              (OSA3_1_1/norm): FrozenBatchNorm2d(num_features=160, eps=1e-05)
              (OSA3_1_1/relu): ReLU(inplace=True)
            )
            (2): Sequential(
              (OSA3_1_2/conv): Conv2d(160, 160, kernel_size=(3, 3), stride=(1, 1), padding=(1, 1), bias=False)
              (OSA3_1_2/norm): FrozenBatchNorm2d(num_features=160, eps=1e-05)
              (OSA3_1_2/relu): ReLU(inplace=True)
            )
            (3): Sequential(
              (OSA3_1_3/conv): Conv2d(160, 160, kernel_size=(3, 3), stride=(1, 1), padding=(1, 1), bias=False)
              (OSA3_1_3/norm): FrozenBatchNorm2d(num_features=160, eps=1e-05)
              (OSA3_1_3/relu): ReLU(inplace=True)
            )
            (4): Sequential(
              (OSA3_1_4/conv): Conv2d(160, 160, kernel_size=(3, 3), stride=(1, 1), padding=(1, 1), bias=False)
              (OSA3_1_4/norm): FrozenBatchNorm2d(num_features=160, eps=1e-05)
              (OSA3_1_4/relu): ReLU(inplace=True)
            )
          )
          (concat): Sequential(
            (OSA3_1_concat/conv): Conv2d(1056, 512, kernel_size=(1, 1), stride=(1, 1), bias=False)
            (OSA3_1_concat/norm): FrozenBatchNorm2d(num_features=512, eps=1e-05)
            (OSA3_1_concat/relu): ReLU(inplace=True)
          )
          (ese): eSEModule(
            (avg_pool): AdaptiveAvgPool2d(output_size=1)
            (fc): Conv2d(512, 512, kernel_size=(1, 1), stride=(1, 1))
            (hsigmoid): Hsigmoid()
          )
        )
      )
      (stage4): _OSA_stage(
        (Pooling): MaxPool2d(kernel_size=3, stride=2, padding=0, dilation=1, ceil_mode=True)
        (OSA4_1): _OSA_module(
          (layers): ModuleList(
            (0): Sequential(
              (OSA4_1_0/conv): Conv2d(512, 192, kernel_size=(3, 3), stride=(1, 1), padding=(1, 1), bias=False)
              (OSA4_1_0/norm): FrozenBatchNorm2d(num_features=192, eps=1e-05)
              (OSA4_1_0/relu): ReLU(inplace=True)
            )
            (1): Sequential(
              (OSA4_1_1/conv): Conv2d(192, 192, kernel_size=(3, 3), stride=(1, 1), padding=(1, 1), bias=False)
              (OSA4_1_1/norm): FrozenBatchNorm2d(num_features=192, eps=1e-05)
              (OSA4_1_1/relu): ReLU(inplace=True)
            )
            (2): Sequential(
              (OSA4_1_2/conv): Conv2d(192, 192, kernel_size=(3, 3), stride=(1, 1), padding=(1, 1), bias=False)
              (OSA4_1_2/norm): FrozenBatchNorm2d(num_features=192, eps=1e-05)
              (OSA4_1_2/relu): ReLU(inplace=True)
            )
            (3): Sequential(
              (OSA4_1_3/conv): Conv2d(192, 192, kernel_size=(3, 3), stride=(1, 1), padding=(1, 1), bias=False)
              (OSA4_1_3/norm): FrozenBatchNorm2d(num_features=192, eps=1e-05)
              (OSA4_1_3/relu): ReLU(inplace=True)
            )
            (4): Sequential(
              (OSA4_1_4/conv): Conv2d(192, 192, kernel_size=(3, 3), stride=(1, 1), padding=(1, 1), bias=False)
              (OSA4_1_4/norm): FrozenBatchNorm2d(num_features=192, eps=1e-05)
              (OSA4_1_4/relu): ReLU(inplace=True)
            )
          )
          (concat): Sequential(
            (OSA4_1_concat/conv): Conv2d(1472, 768, kernel_size=(1, 1), stride=(1, 1), bias=False)
            (OSA4_1_concat/norm): FrozenBatchNorm2d(num_features=768, eps=1e-05)
            (OSA4_1_concat/relu): ReLU(inplace=True)
          )
          (ese): eSEModule(
            (avg_pool): AdaptiveAvgPool2d(output_size=1)
            (fc): Conv2d(768, 768, kernel_size=(1, 1), stride=(1, 1))
            (hsigmoid): Hsigmoid()
          )
        )
        (OSA4_2): _OSA_module(
          (layers): ModuleList(
            (0): Sequential(
              (OSA4_2_0/conv): Conv2d(768, 192, kernel_size=(3, 3), stride=(1, 1), padding=(1, 1), bias=False)
              (OSA4_2_0/norm): FrozenBatchNorm2d(num_features=192, eps=1e-05)
              (OSA4_2_0/relu): ReLU(inplace=True)
            )
            (1): Sequential(
              (OSA4_2_1/conv): Conv2d(192, 192, kernel_size=(3, 3), stride=(1, 1), padding=(1, 1), bias=False)
              (OSA4_2_1/norm): FrozenBatchNorm2d(num_features=192, eps=1e-05)
              (OSA4_2_1/relu): ReLU(inplace=True)
            )
            (2): Sequential(
              (OSA4_2_2/conv): Conv2d(192, 192, kernel_size=(3, 3), stride=(1, 1), padding=(1, 1), bias=False)
              (OSA4_2_2/norm): FrozenBatchNorm2d(num_features=192, eps=1e-05)
              (OSA4_2_2/relu): ReLU(inplace=True)
            )
            (3): Sequential(
              (OSA4_2_3/conv): Conv2d(192, 192, kernel_size=(3, 3), stride=(1, 1), padding=(1, 1), bias=False)
              (OSA4_2_3/norm): FrozenBatchNorm2d(num_features=192, eps=1e-05)
              (OSA4_2_3/relu): ReLU(inplace=True)
            )
            (4): Sequential(
              (OSA4_2_4/conv): Conv2d(192, 192, kernel_size=(3, 3), stride=(1, 1), padding=(1, 1), bias=False)
              (OSA4_2_4/norm): FrozenBatchNorm2d(num_features=192, eps=1e-05)
              (OSA4_2_4/relu): ReLU(inplace=True)
            )
          )
          (concat): Sequential(
            (OSA4_2_concat/conv): Conv2d(1728, 768, kernel_size=(1, 1), stride=(1, 1), bias=False)
            (OSA4_2_concat/norm): FrozenBatchNorm2d(num_features=768, eps=1e-05)
            (OSA4_2_concat/relu): ReLU(inplace=True)
          )
          (ese): eSEModule(
            (avg_pool): AdaptiveAvgPool2d(output_size=1)
            (fc): Conv2d(768, 768, kernel_size=(1, 1), stride=(1, 1))
            (hsigmoid): Hsigmoid()
          )
        )
      )
      (stage5): _OSA_stage(
        (Pooling): MaxPool2d(kernel_size=3, stride=2, padding=0, dilation=1, ceil_mode=True)
        (OSA5_1): _OSA_module(
          (layers): ModuleList(
            (0): Sequential(
              (OSA5_1_0/conv): Conv2d(768, 224, kernel_size=(3, 3), stride=(1, 1), padding=(1, 1), bias=False)
              (OSA5_1_0/norm): FrozenBatchNorm2d(num_features=224, eps=1e-05)
              (OSA5_1_0/relu): ReLU(inplace=True)
            )
            (1): Sequential(
              (OSA5_1_1/conv): Conv2d(224, 224, kernel_size=(3, 3), stride=(1, 1), padding=(1, 1), bias=False)
              (OSA5_1_1/norm): FrozenBatchNorm2d(num_features=224, eps=1e-05)
              (OSA5_1_1/relu): ReLU(inplace=True)
            )
            (2): Sequential(
              (OSA5_1_2/conv): Conv2d(224, 224, kernel_size=(3, 3), stride=(1, 1), padding=(1, 1), bias=False)
              (OSA5_1_2/norm): FrozenBatchNorm2d(num_features=224, eps=1e-05)
              (OSA5_1_2/relu): ReLU(inplace=True)
            )
            (3): Sequential(
              (OSA5_1_3/conv): Conv2d(224, 224, kernel_size=(3, 3), stride=(1, 1), padding=(1, 1), bias=False)
              (OSA5_1_3/norm): FrozenBatchNorm2d(num_features=224, eps=1e-05)
              (OSA5_1_3/relu): ReLU(inplace=True)
            )
            (4): Sequential(
              (OSA5_1_4/conv): Conv2d(224, 224, kernel_size=(3, 3), stride=(1, 1), padding=(1, 1), bias=False)
              (OSA5_1_4/norm): FrozenBatchNorm2d(num_features=224, eps=1e-05)
              (OSA5_1_4/relu): ReLU(inplace=True)
            )
          )
          (concat): Sequential(
            (OSA5_1_concat/conv): Conv2d(1888, 1024, kernel_size=(1, 1), stride=(1, 1), bias=False)
            (OSA5_1_concat/norm): FrozenBatchNorm2d(num_features=1024, eps=1e-05)
            (OSA5_1_concat/relu): ReLU(inplace=True)
          )
          (ese): eSEModule(
            (avg_pool): AdaptiveAvgPool2d(output_size=1)
            (fc): Conv2d(1024, 1024, kernel_size=(1, 1), stride=(1, 1))
            (hsigmoid): Hsigmoid()
          )
        )
        (OSA5_2): _OSA_module(
          (layers): ModuleList(
            (0): Sequential(
              (OSA5_2_0/conv): Conv2d(1024, 224, kernel_size=(3, 3), stride=(1, 1), padding=(1, 1), bias=False)
              (OSA5_2_0/norm): FrozenBatchNorm2d(num_features=224, eps=1e-05)
              (OSA5_2_0/relu): ReLU(inplace=True)
            )
            (1): Sequential(
              (OSA5_2_1/conv): Conv2d(224, 224, kernel_size=(3, 3), stride=(1, 1), padding=(1, 1), bias=False)
              (OSA5_2_1/norm): FrozenBatchNorm2d(num_features=224, eps=1e-05)
              (OSA5_2_1/relu): ReLU(inplace=True)
            )
            (2): Sequential(
              (OSA5_2_2/conv): Conv2d(224, 224, kernel_size=(3, 3), stride=(1, 1), padding=(1, 1), bias=False)
              (OSA5_2_2/norm): FrozenBatchNorm2d(num_features=224, eps=1e-05)
              (OSA5_2_2/relu): ReLU(inplace=True)
            )
            (3): Sequential(
              (OSA5_2_3/conv): Conv2d(224, 224, kernel_size=(3, 3), stride=(1, 1), padding=(1, 1), bias=False)
              (OSA5_2_3/norm): FrozenBatchNorm2d(num_features=224, eps=1e-05)
              (OSA5_2_3/relu): ReLU(inplace=True)
            )
            (4): Sequential(
              (OSA5_2_4/conv): Conv2d(224, 224, kernel_size=(3, 3), stride=(1, 1), padding=(1, 1), bias=False)
              (OSA5_2_4/norm): FrozenBatchNorm2d(num_features=224, eps=1e-05)
              (OSA5_2_4/relu): ReLU(inplace=True)
            )
          )
          (concat): Sequential(
            (OSA5_2_concat/conv): Conv2d(2144, 1024, kernel_size=(1, 1), stride=(1, 1), bias=False)
            (OSA5_2_concat/norm): FrozenBatchNorm2d(num_features=1024, eps=1e-05)
            (OSA5_2_concat/relu): ReLU(inplace=True)
          )
          (ese): eSEModule(
            (avg_pool): AdaptiveAvgPool2d(output_size=1)
            (fc): Conv2d(1024, 1024, kernel_size=(1, 1), stride=(1, 1))
            (hsigmoid): Hsigmoid()
          )
        )
      )
    )
  )
  (proposal_generator): RPN(
    (rpn_head): StandardRPNHead(
      (conv): Conv2d(256, 256, kernel_size=(3, 3), stride=(1, 1), padding=(1, 1))
      (objectness_logits): Conv2d(256, 3, kernel_size=(1, 1), stride=(1, 1))
      (anchor_deltas): Conv2d(256, 12, kernel_size=(1, 1), stride=(1, 1))
    )
    (anchor_generator): DefaultAnchorGenerator(
      (cell_anchors): BufferList()
    )
  )
  (roi_heads): StandardROIHeads(
    (box_pooler): ROIPooler(
      (level_poolers): ModuleList(
        (0): ROIAlign(output_size=(7, 7), spatial_scale=0.25, sampling_ratio=0, aligned=True)
        (1): ROIAlign(output_size=(7, 7), spatial_scale=0.125, sampling_ratio=0, aligned=True)
        (2): ROIAlign(output_size=(7, 7), spatial_scale=0.0625, sampling_ratio=0, aligned=True)
        (3): ROIAlign(output_size=(7, 7), spatial_scale=0.03125, sampling_ratio=0, aligned=True)
      )
    )
    (box_head): FastRCNNConvFCHead(
      (fc1): Linear(in_features=12544, out_features=1024, bias=True)
      (fc2): Linear(in_features=1024, out_features=1024, bias=True)
    )
    (box_predictor): FastRCNNOutputLayers(
      (cls_score): Linear(in_features=1024, out_features=81, bias=True)
      (bbox_pred): Linear(in_features=1024, out_features=320, bias=True)
    )
    (mask_pooler): ROIPooler(
      (level_poolers): ModuleList(
        (0): ROIAlign(output_size=(14, 14), spatial_scale=0.25, sampling_ratio=0, aligned=True)
        (1): ROIAlign(output_size=(14, 14), spatial_scale=0.125, sampling_ratio=0, aligned=True)
        (2): ROIAlign(output_size=(14, 14), spatial_scale=0.0625, sampling_ratio=0, aligned=True)
        (3): ROIAlign(output_size=(14, 14), spatial_scale=0.03125, sampling_ratio=0, aligned=True)
      )
    )
    (mask_head): MaskRCNNConvUpsampleHead(
      (mask_fcn1): Conv2d(
        256, 256, kernel_size=(3, 3), stride=(1, 1), padding=(1, 1)
        (activation): ReLU()
      )
      (mask_fcn2): Conv2d(
        256, 256, kernel_size=(3, 3), stride=(1, 1), padding=(1, 1)
        (activation): ReLU()
      )
      (mask_fcn3): Conv2d(
        256, 256, kernel_size=(3, 3), stride=(1, 1), padding=(1, 1)
        (activation): ReLU()
      )
      (mask_fcn4): Conv2d(
        256, 256, kernel_size=(3, 3), stride=(1, 1), padding=(1, 1)
        (activation): ReLU()
      )
      (deconv): ConvTranspose2d(256, 256, kernel_size=(2, 2), stride=(2, 2))
      (deconv_relu): ReLU()
      (predictor): Conv2d(256, 80, kernel_size=(1, 1), stride=(1, 1))
    )
  )
)
[09/29 15:02:50] d2.data.datasets.coco INFO: Loaded 16187 images in COCO format from /data/ms_data/coco_json/tjmu/train/single_14cls_filter2.json
[09/29 15:02:52] d2.data.datasets.coco INFO: Loading /data/ms_data/coco_json/tjmu1/train/single_14cls_filter2.json takes 1.34 seconds.
[09/29 15:02:52] d2.data.datasets.coco INFO: Loaded 19950 images in COCO format from /data/ms_data/coco_json/tjmu1/train/single_14cls_filter2.json
…
